weights/baselinelstm_best.pth (torch, 704072 bytes, 24 tensors)

lstm1.weight_ih_l0 f4 [256, 258]
000000 74 33 93 bd ff c7 98 3d 00 cd 1b be 91 ca cc bd
       -0.07187548 0.07460021 -0.1521492 -0.09999574
000010 4f 85 f9 bd 98 9a 3f 3e 37 1a de bd f4 d0 3d 3d
       -0.1218363 0.18711317 -0.10844844 0.04634185
000020 c6 2f 38 be ec 52 dd 3c d3 04 f3 bc f1 94 98 bc
       -0.17986974 0.02701708 -0.029665386 -0.018625708
000030 3a 76 f9 bd 19 69 30 3e 93 09 d8 3c 3b 26 3c 3d
       -0.12180753 0.17227592 0.026371753 0.045934897
000040 ec e3 b0 bd f5 1f 9c 3c 7e 69 a7 bd dd ef c1 3c
       -0.08637223 0.019058207 -0.08174418 0.023673946
000050 a3 e3 82 bd 4f 88 99 3d 43 b6 c8 3c a5 34 71 3d
       -0.063910745 0.07496702 0.024500972 0.058888096
000060 07 e3 1c be 2a 0e fa 3a b9 51 79 bd 3a 1f 07 bd
       -0.15320979 0.0019077708 -0.060868952 -0.032988764
000070 fa f9 12 be cb 9b d1 3d 06 70 8b be 61 9a 7c 3d
       -0.14353171 0.10234793 -0.27233905 0.061670665
000080 d2 a5 58 3c 9d ad b9 3d 4b 63 86 be 5c f7 23 be
       0.013223128 0.09066317 -0.2624763 -0.16012329
000090 b1 6f a3 bc 1f 51 79 3d 2e af 8c bd 57 9e 17 3c
       -0.01995072 0.06086838 -0.068693504 0.00925406
0000a0 c4 a1 1c be b5 c5 c1 3a fa 5e bb bb 8d 27 1a be
       -0.15296084 0.0014783653 -0.005718109 -0.1505415
0000b0 84 83 fe 3c d6 71 dc 3d a1 d9 2c be 0e 89 0e be
       0.03106857 0.107639 -0.16879894 -0.1391947
0000c0 59 4b be bd d7 27 bb bb 1a d4 b9 be dd dc c9 bd
       -0.09291715 -0.0057115364 -0.36294633 -0.098565795
0000d0 b3 15 33 bd a4 00 93 bd 72 2e a2 3d 07 87 01 be
       -0.043721866 -0.071778566 0.07919015 -0.12649165
0000e0 9b 1f 2c bc 54 d5 16 3e db 2d 22 3b b6 2b 1c 3d
       -0.010505582 0.14729816 0.002474657 0.038127623
0000f0 f9 ce f0 3c c3 f2 2e 3e 5a 63 91 3d 79 ba 35 be
       0.029395567 0.17084794 0.07099028 -0.17746915
000100 b3 9f a4 bd 60 e6 cd bd c8 33 18 be 6d 1d e5 bd
       -0.08038273 -0.10053706 -0.14863503 -0.11187253
000110 df 76 01 be 38 54 41 3d 94 dd d4 39 ea 02 20 be
       -0.12643002 0.047199458 0.0004060088 -0.15626112
000120 a7 52 b9 3d 86 11 a9 3c d2 c4 8a bd 60 a2 74 bd
       0.09048968 0.020638239 -0.06775822 -0.059725165
000130 68 35 39 be 05 11 e4 3d 60 c9 a0 bb ed 01 0c be
       -0.18086779 0.11136059 -0.0049068183 -0.1367261
000140 9e dd d0 3d d1 57 f4 bd 36 b9 14 be 78 e4 cf bb
       0.1019852 -0.11930812 -0.14523777 -0.0063443743
000150 d2 54 00 bd 43 03 b7 3d 46 82 01 3e a7 13 71 be
       -0.03133089 0.08936169 0.12647352 -0.23542653
000160 7f 69 e0 bd 9e fb ba 3d 48 f9 19 3d 1f 0b c2 bd
       -0.10957622 0.091300234 0.03759125 -0.094747774
000170 bb 72 b8 3d 42 9f 46 3d e1 14 9d 3e 45 59 8e be
       0.09006258 0.048491724 0.30679992 -0.27802482
000180 ef 7c 18 be 48 5e 67 3c 0f b5 4c be a4 6e d8 bd
       -0.14891408 0.0141215995 -0.19990943 -0.10567978
000190 d5 e0 ba 3d 8d ea 8f bd e7 34 37 bd 48 4a 5e 3e
       0.091249146 -0.07027159 -0.044728186 0.21708024
0001a0 9a 68 c8 3c 97 14 52 3d 5c 89 c5 be c1 d9 e3 3d
       0.02446394 0.051289167 -0.3858136 0.11125518
0001b0 8b ec 9d bd d1 40 23 be 05 6e 88 bc 82 d5 1a bd
       -0.077111326 -0.15942694 -0.016654024 -0.037801273
0001c0 8d 84 fe 3b 91 30 01 be 4a ab 6b bc 60 43 89 3e
       0.007767266 -0.12616183 -0.0143841 0.26809216
0001d0 06 4c c7 3d fa 88 e3 bd f6 f6 14 3e 51 76 57 3e
       0.09731297 -0.111101106 0.14547333 0.21041228
0001e0 10 38 f6 3b b2 e3 23 be df 07 16 be aa 04 ca 3d
       0.0075140074 -0.16004828 -0.1465144 0.09864171
0001f0 c9 4a 33 bd db d4 0e be dc 69 69 3e dd a3 25 3e
       -0.043772493 -0.13948385 0.22794288 0.1617579
000200 6b 8d b3 bd 78 57 18 be 81 93 cd bd 6d e3 19 3d
       -0.08767208 -0.14877117 -0.100379 0.037570406
000210 89 23 7e 3d 5a 2f 9d 3e e0 6c 66 3d fb d3 04 3e
       0.062045608 0.3070019 0.056256175 0.12971489
000220 8e 32 78 3e 4a 8a a2 be 1d e0 40 3e e7 2b 13 3e
       0.24238035 -0.3174613 0.18835492 0.14372216
000230 80 d3 08 be 16 8d d3 3d 5b 40 b9 3e 42 f2 0f be
       -0.13361931 0.103296444 0.36181912 -0.14057258
000240 e5 56 3d 3e 67 21 14 3e d0 22 95 be c0 86 39 3e
       0.18490179 0.14465867 -0.29128122 0.1811781
000250 72 c7 9b 3e 37 3d b4 3c 4f c7 84 3e b4 e9 85 3e
       0.30425602 0.022001846 0.2593331 0.26154864
000260 8d 4a 99 3d 0c 60 eb 3d e6 37 53 3e 27 a3 ac bd
       0.074849226 0.11492929 0.20626792 -0.08429556
000270 c1 83 8c 3e ae 09 f3 3c 47 ba 84 bd 61 1c 82 3d
       0.2744427 0.029667702 -0.06480842 0.06353069
000280 9b cd c0 3d cd e3 9a bb 4c de d1 3d 66 9c 66 3e
       0.09414216 -0.004726863 0.10247478 0.22520599
000290 f0 4d 21 3d 6b 83 24 3e ba fb fb 3c 3c 3f 5d be
       0.039380968 0.16065757 0.030759681 -0.21606153
0002a0 1b 51 2f 3e 4d 51 6b 3b 62 e7 87 be 48 64 d2 3d
       0.17120783 0.0035906613 -0.2654372 0.102730334
0002b0 b1 03 75 3e 1c 1d c8 bd b6 b0 00 3e 3d 81 cc 3d
       0.2392719 -0.09771177 0.1256741 0.09985588
0002c0 44 57 f2 bd 3a ea 76 3e 04 c7 f5 3c 39 91 d2 be
       -0.11833051 0.24112788 0.030002125 -0.4112642
0002d0 37 3a 9a 3e 27 12 ed 3d 5a 0d bb be 74 98 89 3e
       0.3012254 0.11575728 -0.36533624 0.26874125
0002e0 4a 73 bd 3d c0 71 b3 bd 60 62 27 3e 79 f3 4b 3d
       0.09250505 -0.087619305 0.16346121 0.04979274
0002f0 0b 30 46 be 8f 15 00 3e bd 0f 1f 3d c0 f0 a6 be
       -0.19354264 0.12508224 0.03883337 -0.32605553
000300 cd e9 24 3e 08 98 8a 3c c7 a4 a7 be 67 07 09 bd
       0.16104813 0.016918197 -0.32742903 -0.033454325
000310 de 16 60 3e 3e 66 17 3e 97 b9 bd 3d 0d a5 96 3e
       0.21883723 0.14785096 0.09263914 0.294228
000320 10 83 1c bf 0b 99 2b 3e 07 38 0d 3e 21 81 c0 be
       -0.61137486 0.167576 0.13790904 -0.37598518
000330 d6 f2 6e 3d 6d 80 54 3e 41 57 35 be 30 cd 05 3c
       0.058337055 0.20752116 -0.17709066 0.008166596
000340 66 04 b0 3d bd 5b 30 be d1 5b 1a 3e 35 76 ed 3d
       0.08594589 -0.17222495 0.15074088 0.11594812
000350 46 4b e6 3d 2d f4 24 3e 2a 35 55 3d 1e 6b 91 3e
       0.11244826 0.1610877 0.052052654 0.28402036
000360 f8 37 a4 3d 0c 99 cf bd 4e 12 8e 3e 2b 06 20 3e
       0.08018488 -0.10136613 0.2774834 0.15627353
000370 6e bc 09 be c8 21 6c 3d c4 fc 26 3e a6 f1 72 3c
       -0.13450786 0.057649404 0.1630736 0.014828121
000380 f6 be 57 3e b7 b3 86 bc 51 c6 bb bc 86 90 33 3e
       0.2106894 -0.016443117 -0.022921713 0.175356
000390 ef ca ec 3d 6d 6a d2 3b ba 38 ac 3d 34 26 45 bd
       0.11562144 0.0064213783 0.08409257 -0.048132136
0003a0 1e 66 32 be 9f ce 67 bd 30 e3 a1 3c 94 d7 0a 3e
       -0.17421767 -0.056593534 0.019761652 0.13558799
0003b0 65 21 3a 3d 8a c9 f3 3d 8b 3f 3a 3d bd dd 3e 3e
       0.045442004 0.11903675 0.045470756 0.18639274
0003c0 6b 80 7d 3d 6b 6d 8b bd ff e3 0c bc ea d3 80 bd
       0.061890047 -0.06807979 -0.00859928 -0.062904194
0003d0 5c b3 58 be 03 48 c8 be 9d b9 0f bd 7a 72 20 3e
       -0.2116217 -0.3911744 -0.035089124 0.1566867
0003e0 b3 ac 85 3e 92 b9 0e bd 4a 85 ae 3d 4f d8 4a 3e
       0.26108322 -0.034844942 0.085215166 0.19809078
0003f0 75 8f a3 3c 63 cf 9a bd 99 ca 00 bd d4 c4 b9 3d
       0.019965867 -0.07559087 -0.031443212 0.09070745

lstm1.weight_hh_l0 f4 [256, 64]
000000 af f7 35 3e 16 ab 31 3d 68 25 2e be 37 a9 81 be
       0.17770265 0.04337605 -0.17006457 -0.25324413
000010 98 01 44 bc 61 eb 71 3d d0 32 cd 3d ca b0 b8 bb
       -0.011963271 0.059062365 0.10019457 -0.0056363093
000020 8d a5 2e bd 82 0d 5e be 3c db 70 3e 70 db a3 3c
       -0.04263835 -0.2168484 0.23521131 0.020002097
000030 70 38 bd bd b1 6c 41 3d 72 28 6b 3e b4 ba 18 3d
       -0.0923928 0.047222797 0.22964647 0.03728743
000040 c4 77 1d be f1 66 ba 3e 6d 52 46 be 1d 36 8f bd
       -0.15377718 0.36406663 -0.1936738 -0.06992743
000050 48 9a f8 3d 10 42 6d bd 5a 70 03 3d 1d 1d 64 3d
       0.12138802 -0.05792433 0.03208957 0.055691827
000060 ce 09 a3 bd 3b 8f a3 3c 5b 90 d1 3d 14 01 86 be
       -0.079608545 0.019965759 0.10232612 -0.26172698
000070 3c 81 12 3d 16 58 e8 3d 26 42 03 be 61 4a bb 3c
       0.03576778 0.11344926 -0.12818202 0.022862615
000080 64 55 b9 3c 77 bf 17 be 03 e2 af bd 04 62 d1 bd
       0.022623725 -0.14819132 -0.0858803 -0.10223773
000090 c4 3e ac be b0 19 68 3e 5c da 09 bd 6f 2b 16 be
       -0.33641636 0.22666049 -0.03365551 -0.14665006
0000a0 dc b1 05 3d 72 13 7e bd b1 72 f8 3c 89 79 48 3d
       0.032640323 -0.062030263 0.030328127 0.04894403
0000b0 6b 0f 05 3e eb 70 93 3e e7 20 47 bd a5 b2 37 be
       0.12994163 0.28797087 -0.048615362 -0.17939241
0000c0 3f ab 6d 3d e4 f9 a9 37 4b b1 fe 3c 17 41 01 bd
       0.05802464 2.0262734e-05 0.0310904 -0.031556215
0000d0 8b fc 66 be 73 51 e3 3d 8f ee c2 3c 7b e7 c9 bd
       -0.22557275 0.110995196 0.023795394 -0.098586045
0000e0 fe 6c e3 3b d6 f9 01 be 99 27 39 be c9 9e 70 3e
       0.006940483 -0.12692961 -0.18081512 0.23498072
0000f0 0b b9 f3 bd 27 f1 6a 3d 5f 6e a7 ba c7 b7 2a 3d
       -0.119005285 0.057358887 -0.0012773982 0.04167917
000100 47 97 fb bd 46 91 45 bd 65 27 ca 3c 53 6f 83 3d
       -0.12284713 -0.048234247 0.024676988 0.06417718
000110 f2 50 17 bd db bb d1 3d 11 35 8c 3e cd 0c f2 3d
       -0.03694243 0.10240909 0.27384236 0.11818848
000120 0d 99 d0 bc 5d 19 0e 3e d4 0d 1d 3e 1b 85 e9 bd
       -0.025463605 0.13876863 0.15337306 -0.11402341
000130 51 3f 0e 3e a6 1f 42 3d 2f 8f c0 3d de 70 03 be
       0.13891341 0.047393464 0.0940231 -0.12836024
000140 71 5b f9 3d 49 b3 00 bd d9 61 13 3d 13 8d 72 3d
       0.12175644 -0.03142098 0.035981987 0.05921657
000150 9f 55 83 3d f1 ce e6 3d a9 63 87 bd a7 9c 85 bd
       0.06412815 0.1126994 -0.066108055 -0.0652402
000160 1f ce 0c 3e e2 88 34 bc 28 b2 25 bd 27 6a 1e 3d
       0.13750504 -0.0110189635 -0.040453106 0.038675454
000170 20 4c da 3d 8f 99 d6 3b ca ce f5 3c 7b 8c a5 3d
       0.10659051 0.0065490673 0.030005831 0.08083435
000180 af b7 a1 be 5c 50 9d 3d e8 c3 25 be 64 29 8f bd
       -0.31585452 0.07681343 -0.16188014 -0.069903165
000190 11 f4 4f bc 23 ae bd 3c db 5e d0 bd 06 c3 a3 bd
       -0.012692467 0.023154324 -0.10174342 -0.07996182
0001a0 74 f5 19 bd e8 3a 1f bd b5 b3 dc 3d 14 84 82 bd
       -0.037587598 -0.038874537 0.10776464 -0.06372848
0001b0 e9 0a ce bd 0c 99 a7 3d 47 3b ef bb 2c 90 0e 3e
       -0.10060675 0.08183488 -0.0073007676 0.13922185
0001c0 2e ef 13 be c6 c0 da 3d 45 a6 2d 3c 53 4c 8e 3e
       -0.14446709 0.106813 0.010598724 0.27792606
0001d0 f6 8e 4e bc 57 4c 03 bd 01 b7 15 3d 0f 50 2f 3d
       -0.012607327 -0.032055225 0.03655148 0.04280096
0001e0 87 b4 d3 3c c2 cc 5c 3d 11 41 0f 3e 3e 20 22 be
       0.025842918 0.05390621 0.13989665 -0.15832612
0001f0 ac ca 58 bd 57 91 11 bd ea fb c5 3d 8b 2c a1 bd
       -0.052927658 -0.035538998 0.096671894 -0.07869824
000200 91 2c c6 bd fc f0 00 be 38 9f a8 3d 0c 48 84 bd
       -0.09676469 -0.12591928 0.082334936 -0.06459054
000210 86 03 cd bd 6f 84 00 3e ff 8a 14 bd d2 c0 fe 3d
       -0.10010438 0.1255052 -0.03626537 0.12439121
000220 86 95 56 bd 0b 81 33 bd 37 b9 5a 3d 61 db a7 3e
       -0.05238869 -0.043824237 0.05339929 0.3278456
000230 62 55 9d 3b 81 7c 8f bc 42 3b c4 3d c6 92 0f 3d
       0.004801438 -0.017515423 0.09581615 0.035052083
000240 85 75 1a 3e f1 3b 55 be d2 11 5f 3d 71 e1 e7 bd
       0.15083893 -0.20823647 0.054460354 -0.113222964
000250 bd 2a 6d 3e 94 f8 fc 3b 1c 28 98 bd 14 c3 c7 3d
       0.23160835 0.0077200625 -0.07429525 0.09754005
000260 bf a9 cc 3c b4 b5 87 3d da 64 0f be 1f 9e 09 be
       0.024983285 0.06626454 -0.14003316 -0.13439225
000270 d3 26 23 3e ef 48 f1 bd 5d 11 6e 3d 8e f7 57 3e
       0.15932779 -0.11781489 0.058122028 0.21090528
000280 3f d7 a0 3d 16 c6 cf bb a1 43 7c be 60 e7 cf bd
       0.07853555 -0.0063407524 -0.24635173 -0.10151553
000290 a5 24 d1 3d 6f de 38 bd 33 e6 ed bc 8d 9e 31 be
       0.102120675 -0.045134004 -0.029040432 -0.17345639
0002a0 fb cf 2d bc 89 7b 9d 3d 89 b2 d1 3c 0b 66 13 3d
       -0.010608668 0.07689578 0.025597828 0.035985988
0002b0 5e 7a 00 bd 59 87 20 3e e7 56 9d bc 2a f9 1c 3d
       -0.0313667 0.15676631 -0.019206477 0.03832356
0002c0 b0 de c4 bd 17 4e 17 3e 2f 6c 00 3d 68 89 81 3c
       -0.09612787 0.14775883 0.031353172 0.01581259
0002d0 26 ae 89 3d fc 6e c7 bd 8d e7 ae bd 19 29 0c 3e
       0.06722669 -0.097379655 -0.085402586 0.13687553
0002e0 78 a4 d7 bd f8 7a 27 be 14 df 55 3d 04 bd 54 be
       -0.10529417 -0.16355503 0.052214697 -0.20775229
0002f0 b9 17 2c be af d3 ee 39 d5 86 6e bd 61 fa de bd
       -0.16805924 0.00045552614 -0.058234055 -0.108876
000300 18 d6 b1 bd 31 37 c1 3c 3b d8 e6 bd 45 4a ef 3d
       -0.08683413 0.023585888 -0.112717114 0.11684088
000310 8c a7 14 3c 94 01 d7 bd 67 88 37 bd df 79 0f bd
       0.009073149 -0.10498348 -0.044807818 -0.035028335
000320 f7 de 49 be c2 f7 0c 3d b2 23 89 3e 23 0c 14 be
       -0.1971396 0.034415968 0.26785046 -0.14457755
000330 ed c1 98 bd 89 71 32 3c 48 44 71 3e 33 a7 21 be
       -0.074588634 0.010891327 0.23561203 -0.15786438
000340 b0 c7 6d 3c 44 a4 ca 3c 78 59 44 3d fc 76 31 be
       0.014512941 0.024736531 0.047936887 -0.17330545
000350 be fb cd bc 3e f5 9d 3d e8 d2 06 bd d8 77 30 3e
       -0.025144454 0.07712792 -0.03291598 0.17233217
000360 07 0e 96 3d 8c e4 4d 3d 68 37 f1 bb f5 69 15 3d
       0.07326894 0.050266787 -0.0073613413 0.036478
000370 bd 46 03 be 06 40 cb be 5c 38 5b 3c 41 93 66 3e
       -0.12819953 -0.39697284 0.013380136 0.2251711
000380 56 6f 2b be 79 cc a1 bc 7f 9b c6 bd ce 65 ae 3d
       -0.1674169 -0.01975082 -0.09697627 0.085155115
000390 af 91 58 3d a2 d0 e2 bd f7 17 f4 bd b2 27 4e 3e
       0.05287331 -0.1107495 -0.119186334 0.2013233
0003a0 e8 ab d5 bd cb 8f 21 be bf 59 64 3e a6 18 25 bd
       -0.10433179 -0.15777509 0.2229986 -0.04030671
0003b0 ac 9f eb bc c2 9e c5 3d 57 f5 c1 3d 78 17 74 bd
       -0.02876266 0.09649421 0.09470623 -0.059592694
0003c0 29 f0 00 be 0d 1b 14 3c 72 85 15 3d 09 97 96 3c
       -0.12591614 0.0090396525 0.036504216 0.018382566
0003d0 27 1b f0 bc 25 6a 9e bd 1a 93 cd bd 13 30 28 be
       -0.029309822 -0.07735089 -0.10037823 -0.16424589
0003e0 a6 38 19 3e 45 28 58 bd 71 8d 8e bc 44 b4 15 be
       0.14963016 -0.05277278 -0.017401429 -0.14619547
0003f0 59 7a c9 bc f4 70 38 3e 51 36 dd bd 1b 0b be bd
       -0.024594473 0.18011838 -0.10801376 -0.09279462

lstm1.bias_ih_l0 f4 [256]
000000 55 85 19 bd 99 38 c2 3d 7a e2 a7 bd eb e3 e4 3c
       -0.03748067 0.094834514 -0.08197494 0.027940711
000010 e7 da 2d 3c 83 69 dc bd 05 c7 fb bb e5 e3 bb 3d
       0.010611272 -0.10762312 -0.007683637 0.09174327
000020 be db e2 3b 80 84 fe bd d7 82 c3 bc 5e e0 1e 3c
       0.006923168 -0.12427616 -0.0238661 0.009697048
000030 63 60 5a bd 22 6a 48 3d a9 ce 14 3e 77 e6 00 3e
       -0.053314578 0.04892934 0.1453196 0.12587915
000040 2e 22 5f bd bb c7 ac 3b d5 1a 31 bd 6c 98 c8 3c
       -0.054475956 0.005272833 -0.04323848 0.024486743
000050 a1 d2 1d 3d 1e 77 72 3d c6 1b 70 3d 70 bd e5 bd
       0.03853095 0.05919563 0.058620237 -0.11217773
000060 92 91 ba bd 58 43 8e bd 07 83 8d bd a9 77 9c bd
       -0.091097966 -0.069464386 -0.06909757 -0.07640011
000070 fc 0b 27 bc 4b a5 91 3d d4 73 35 bc 4a c1 bd bc
       -0.010195728 0.07111605 -0.011074979 -0.023163456
000080 a3 65 da bd 33 89 0c be ad b4 b7 3d 96 a3 6f 3c
       -0.10663917 -0.13724212 0.08970008 0.014626404
000090 15 02 2f 3d 62 23 a6 bd 84 41 da bc b4 4f f0 bd
       0.042726595 -0.081122175 -0.026642568 -0.11733952
0000a0 e2 6d 2b 3d 8b d3 33 bd 61 d1 1e bd 36 72 21 3d
       0.04185284 -0.043902915 -0.038773898 0.03941556
0000b0 23 2d 89 3c d7 c6 02 be 69 5c 4e 3d 56 fd 02 bc
       0.016745156 -0.12771164 0.050381098 -0.00799497
0000c0 e6 4d 6b be 1f 94 61 bd fc 94 61 3c 00 c8 7c 3d
       -0.22978935 -0.0550729 0.013768431 0.061714172
0000d0 49 e8 e8 3d 5d a9 eb bd 70 72 46 bd 8b 40 9f bd
       0.1137243 -0.11506913 -0.04844898 -0.077759825
0000e0 28 18 a7 bc ae 6d a9 bd 7e df 0e be 33 22 8b bd
       -0.02039726 -0.08272873 -0.13952443 -0.06793632
0000f0 d8 53 26 bd 32 4a f1 bc 65 fd bc bd 87 47 fe bc
       -0.040607303 -0.029454324 -0.09228019 -0.031039966
000100 43 79 ec bd f5 05 f4 3d f6 aa e2 bd 2f 68 18 3d
       -0.11546566 0.11915199 -0.110677645 0.037208732
000110 13 9b db bd 87 d9 fa 3c 0d e8 d9 bc 3a 94 36 bd
       -0.107229374 0.030621303 -0.026599908 -0.044574954
000120 4b a8 24 3d f4 91 6d 3d 6f 24 01 3d 1e b3 b2 3d
       0.04019956 0.05800052 0.031528886 0.0872557
000130 3a 12 26 3e 6f 19 43 3c 24 c4 d9 3d 88 ac 51 3c
       0.1621789 0.011907919 0.10633114 0.012797482
000140 5e b7 69 bd 83 66 39 3e 07 76 1e 3e ba dc da 3b
       -0.05705964 0.18105511 0.15474711 0.0066791447
000150 9b fe 44 3d 89 0a 89 bc ca c1 23 bd b4 6a de 3c
       0.048094373 -0.016728656 -0.039979734 0.02715049
000160 d6 08 c0 bc 96 f6 ac bb 6b ac 62 3d c7 13 4e 3c
       -0.023441713 -0.005278419 0.05534021 0.0125779575
000170 40 7d dd bc b4 f5 0b 3e 52 35 92 bb 7f d6 02 bd
       -0.027037263 0.13667947 -0.0044619227 -0.03194284
000180 47 f0 5d bd b1 43 27 bc 4a 72 af 3d c4 7d 23 3e
       -0.054184224 -0.01020901 0.08566721 0.15965945
000190 7f e9 35 bd 4d 54 cb 3d c2 b2 50 3d 30 93 f3 3d
       -0.044412132 0.099281885 0.050951727 0.11893308
0001a0 04 16 17 be 51 6d ca bd 30 3d 52 3d 66 9f 9a 3d
       -0.14754492 -0.09884132 0.051327884 0.07549934
0001b0 2d 84 ba bb 62 b5 c1 3b 19 68 b7 bc 84 4a 5c 3d
       -0.005692026 0.005911515 -0.022388505 0.053782
0001c0 de ed 00 bd 77 7f e5 3d 29 0b c8 bd d5 0c d9 3d
       -0.031476848 0.112059526 -0.09767754 0.10598151
0001d0 7a 26 88 bd 43 60 ea bd 36 5c 5d bd 18 33 de bc
       -0.06647964 -0.11444142 -0.054043017 -0.027123973
0001e0 58 03 1b be a2 d7 e5 3d 91 75 e4 3d 5a 98 f7 3d
       -0.15137994 0.11222769 0.111552365 0.12089606
0001f0 3d 50 88 3d f6 33 0d be 18 fb d3 bd 6f 65 9a bd
       0.06655929 -0.13789353 -0.10350627 -0.07538878
000200 4d c4 01 3e 10 8e 46 bd 92 e3 ac bc 1f 4a 80 ba
       0.12672539 -0.048475325 -0.021104608 -0.0009787715
000210 18 ce dc 3d 50 b4 d9 3d fa 49 7f 3d 52 d7 86 3c
       0.10781497 0.10630095 0.06232641 0.016460095
000220 cc 33 3f 3d c3 9d 59 bd c5 2d 24 be 22 e4 87 bd
       0.046680257 -0.05312897 -0.16033085 -0.0663531
000230 16 ce f5 bc f8 7a 50 3b a7 9c c1 bd bd 50 03 3b
       -0.030005496 0.0031811576 -0.09453707 0.0020037137
000240 58 da 03 bd b5 d5 4b bd 58 e8 63 3b 53 b9 4b 3b
       -0.03219065 -0.049764354 0.003477594 0.0031085804
000250 76 58 ae bd 04 84 a3 bc 11 82 0c 3d 94 e2 42 3d
       -0.08512966 -0.01996041 0.03430373 0.047579363
000260 00 e7 7f 3c 4a ba cd bb db b9 ba 3d e3 7c 21 bd
       0.01561904 -0.006278311 0.0911748 -0.039425742
000270 7b 2b c3 bc 30 62 55 3a 42 fa 14 bd 6d 44 b4 bd
       -0.023824444 0.0008139936 -0.036371477 -0.08802114
000280 ae 7f 04 be fb 46 90 3c 9e ca a8 bc 5d 5e 43 bd
       -0.12939331 0.017611971 -0.020604428 -0.047697414
000290 31 48 2c bc 6e a1 e2 3d db 91 73 3c 7a be ee 3d
       -0.010515259 0.110659465 0.014866318 0.11657424
0002a0 b4 e9 f3 bc 86 52 86 3d 48 27 2b bd 23 03 98 bd
       -0.029774524 0.06558709 -0.04178551 -0.07422473
0002b0 80 b8 90 3d 3a c0 a7 bd fd 18 8b bd 9c bd 58 3d
       0.070664406 -0.08190961 -0.067918755 0.0529152
0002c0 6c c7 ba bc ba 55 11 3d 9f 1c f0 bd ca 4d 32 3d
       -0.02280017 0.035482146 -0.11724209 0.043531217
0002d0 4a 59 d4 bd e6 4e a3 3d 13 ed 82 bd 69 3d 88 bd
       -0.10368593 0.07974033 -0.063928746 -0.06652338
0002e0 f3 7d f9 bd a2 1b 4a 3c cc 78 94 bd f0 05 09 3d
       -0.12182226 0.01233569 -0.07249603 0.033452928
0002f0 80 ad b4 3a 7b fc 7d 3d a6 5e 5d bd 33 0f cd bd
       0.0013784617 0.062008362 -0.054045342 -0.10012665
000300 dc 44 b6 3d 2d e2 b4 3c 5f b4 f4 bb 0d 5f b4 bc
       0.08899853 0.022080505 -0.007467791 -0.02201798
000310 40 59 00 bd 27 56 a2 3c fe ca dd bd aa 2a d6 bd
       -0.031335115 0.019816471 -0.10829733 -0.10457356
000320 53 b4 12 be 45 d4 08 be fb b6 47 bd fb 7f 9b bd
       -0.143266 -0.13362224 -0.04875849 -0.0759277
000330 94 6e 76 3b 26 1d 9f bd 61 92 c7 3d a2 cb 08 3e
       0.003760253 -0.077692315 0.097447164 0.1335893
000340 d3 a6 c3 3d 01 fc 65 bd 65 72 eb 3d 07 90 4d 3e
       0.095533036 -0.056148533 0.114964284 0.20074473
000350 bb 44 4a bb 64 89 11 be 8a 29 f8 bd bd b1 38 3e
       -0.003086372 -0.14212567 -0.12117298 0.18036552
000360 e6 c1 18 3e 24 1b b3 3d 59 91 3a 3d b0 b9 a1 bc
       0.14917716 0.08745411 0.04554877 -0.019741863
000370 23 48 2b 3d 17 a9 16 3e 88 04 26 3d aa ec 0f 3e
       0.04181684 0.1471294 0.040531665 0.14055124
000380 19 08 f6 3b 95 23 87 3d 2a 85 2b bd 9f 61 e4 3d
       0.0075082895 0.065985836 -0.041875042 0.11151432
000390 ed a8 9c 3d 10 0b 3b 3d 20 3f 06 bd 5a 5d 53 3d
       0.076494075 0.045664847 -0.032775044 0.0516027
0003a0 0b d4 12 3c f9 33 60 bd 23 98 00 be 00 31 81 bb
       0.008961688 -0.054737065 -0.12558036 -0.003942609
0003b0 68 2d 8d bb 87 fd f7 bc dc 0e 0a bd a5 64 10 3e
       -0.0043083914 -0.030272258 -0.033705577 0.14100893
0003c0 5a 8f d4 bd 82 b2 4f 3d 85 c5 06 bc 79 fd 1f 3d
       -0.10378905 0.050707348 -0.008225803 0.03906009
0003d0 11 97 dd bb 74 f8 f1 3c d4 42 fa bc de d0 9f 3d
       -0.0067623933 0.029537417 -0.030549444 0.0780351
0003e0 07 b5 ce 3b 58 7c 87 bd 86 1c c2 bb a8 b3 5b 3d
       0.0063082012 -0.066155136 -0.0059238104 0.05363813
0003f0 9a 41 62 3d 7c 34 8a bb 71 d9 d0 bd 0f bd bc bd
       0.055238344 -0.0042176824 -0.10197724 -0.092157476

lstm1.bias_hh_l0 f4 [256]
000000 81 47 f5 3c bb 32 b4 3d 58 85 07 bc 85 3f 8f bd
       0.029941322 0.087987386 -0.008271538 -0.06994537
000010 da 8e ca bd 8b 88 8a bd cc 16 c6 bc 76 79 ba bc
       -0.09890528 -0.06764325 -0.024180792 -0.022762995
000020 c8 94 f7 bd 83 39 d2 bd 59 ac e4 3c 52 c9 da bc
       -0.12088925 -0.10264876 0.027914213 -0.026707325
000030 c1 91 13 bc 98 bc db bc 91 3e 80 3d c2 fe cc 3d
       -0.009006918 -0.026823327 0.062619336 0.10009529
000040 4e 9f 1b bd 84 42 c5 bd 33 77 51 3d 41 c9 e7 3d
       -0.03799372 -0.096318275 0.051139068 0.11317683
000050 1b d9 7d bc a3 88 9f 3b 58 18 2e 3d 78 5d 3d bd
       -0.0154936565 0.0048685833 0.042503685 -0.046231717
000060 1c 3c 23 bd 8f 06 45 bc 63 b7 59 3d c0 75 00 be
       -0.039852247 -0.0120254895 0.053153407 -0.12544918
000070 36 fb d9 bd 64 49 36 3d 62 63 25 3d 1a a6 7f bc
       -0.10643618 0.044503585 0.040377982 -0.015603567
000080 e6 ad 8e 3c 3e aa 89 bd ea be 92 bd fb 1d de 3c
       0.017416906 -0.06721924 -0.0716532 0.027113905
000090 f4 c4 11 bc 75 25 a7 3d 2b 85 ce 3d fc e4 c1 bd
       -0.008897055 0.08161441 0.100839935 -0.094675034
0000a0 7f 30 89 bd f0 2a e0 bc e3 d9 ef 3c b8 aa e2 bc
       -0.06698703 -0.027364224 0.029278701 -0.027669296
0000b0 02 46 90 bc 75 7e fe bd ff 51 49 3d 00 67 07 bc
       -0.017611507 -0.124264635 0.049150463 -0.008264303
0000c0 a3 07 21 be a9 ed 86 bd 08 a7 43 bd d8 af cf 3d
       -0.1572557 -0.06588299 -0.047766715 0.101409614
0000d0 66 97 e2 3d a8 51 81 bc df 41 11 bd 17 13 f5 ba
       0.11064033 -0.015786007 -0.03546321 -0.0018697706
0000e0 fc 84 e4 bd 86 67 41 bb 3f 52 d8 bc 13 8d 82 3c
       -0.11158177 -0.0029511168 -0.026406405 0.01593641
0000f0 90 f1 19 3d 57 31 6a bd b2 38 43 bd 5e 27 80 bd
       0.037583888 -0.05717596 -0.04766149 -0.06257509
000100 a5 38 b5 bd 20 ec 2d bc d7 31 cd bd 87 23 b2 3c
       -0.08848695 -0.010615379 -0.10019272 0.021745456
000110 c4 a6 62 3c 1f 7f ad 3d ee d0 92 bb 35 e8 86 3d
       0.013833705 0.08471512 -0.0044804728 0.06587259
000120 3b 62 8b 3c 1f 7b 04 be e7 25 cc bd a5 0c 49 3d
       0.017014613 -0.12937592 -0.09968167 0.049084324
000130 04 4a 31 3d 9b 21 8a 3b 82 c4 6e bd 51 06 0c 3d
       0.043283477 0.004215432 -0.058292873 0.03418571
000140 1a 09 7a bd da 98 48 3e 67 09 07 3e f2 26 a0 bd
       -0.061043836 0.19589558 0.1318718 -0.07819928
000150 bc fb bc bc 7f 9b 5e 3d 55 94 9d ba 68 d0 78 3d
       -0.023069255 0.05434751 -0.0012022356 0.060745627
000160 84 0a 3f 3d 79 38 94 3d 4e 64 f6 bc d6 b6 68 3d
       0.046640888 0.07237334 -0.030077126 0.05681499
000170 15 a8 05 bd 4d 1c 03 3e 7b c0 a2 bc b5 42 cc bd
       -0.032631 0.12803765 -0.019867172 -0.09973661
000180 86 b7 80 3b a1 94 23 3c 00 f0 85 3a 54 31 70 3d
       0.0039281277 0.009984166 0.001021862 0.058640793
000190 31 cb 46 3d f2 9e 70 3d 3f 0e 91 3d 86 1f 80 3d
       0.048533622 0.058745332 0.07082795 0.062560126
0001a0 e3 eb 84 bb 2d 9a ab bd 84 ff a1 3d 24 42 b1 bd
       -0.00405644 -0.08379016 0.07910064 -0.086551934
0001b0 14 a4 9b 3d c9 3a e5 bc 01 28 15 3e 6c e5 d8 3c
       0.07599655 -0.027982133 0.14566042 0.026476584
0001c0 1b c8 e9 bd 9b 6a ae 3c d2 1e dc bd 47 0d 1c 3d
       -0.1141512 0.021291068 -0.10748066 0.0380986
0001d0 79 de 37 3b 08 0b 9f bd 8d 7c 8d bd 94 1d b4 bd
       0.0028056188 -0.07765776 -0.06908522 -0.08794704
0001e0 8b 77 08 be 6f 47 85 3c df ec aa 3d d4 a0 8e bd
       -0.13326852 0.016269414 0.08345961 -0.06964269
0001f0 80 83 d6 3d 05 96 8e 3d 7f 31 ee 3c 87 5c 06 3d
       0.104743004 0.06962208 0.029076336 0.032803085
000200 1f e7 b8 3d 29 95 ef 3c 36 aa 5f bd 58 d8 11 be
       0.09028458 0.02924593 -0.054605685 -0.14242685
000210 5b 84 8d 3d 6b 8c 81 bd 06 8d 9a 3d 97 96 10 3e
       0.069100104 -0.06325611 0.07546429 0.14119945
000220 66 2e a4 bd 07 2d f0 3d 71 8e 0e 3d 93 b3 56 3d
       -0.08016662 0.11727338 0.03480381 0.05241735
000230 f0 8a 92 3d 7c a6 a4 3d a4 5b fd 3c e7 9a 60 3d
       0.071554065 0.08039567 0.030927487 0.054835226
000240 94 49 89 bb eb de c8 3d bf d9 47 3d 2c dd 1d 3c
       -0.0041896794 0.09808143 0.048791643 0.009635251
000250 3a 73 79 3d d1 0b d3 ba 04 41 43 bd 9b 0a eb 3d
       0.060900904 -0.0016101544 -0.047669426 0.11476632
000260 91 bc 88 3d 98 52 83 bc 1e a3 17 3d 81 93 8a bd
       0.06676591 -0.016030595 0.037020795 -0.067664154
000270 90 64 dc bd 50 09 06 3c 6e 9e 1a 3e 07 25 b0 bd
       -0.10761368 0.008180931 0.15099499 -0.086008124
000280 7a 0c 26 3d 5c e6 9c 3d 4d bb 76 3d d9 b4 15 3c
       0.040539242 0.07661125 0.060237218 0.009137356
000290 30 fb 10 3c 28 e6 92 bc c2 77 eb bd 2d b2 3b 3d
       0.00884895 -0.017932013 -0.11497451 0.04582422
0002a0 2c d0 82 3d e8 cd 8a 3d 74 0d 70 3d 90 0d 0c 3e
       0.06387362 0.06777555 0.05860658 0.13677049
0002b0 02 79 44 bd 06 72 bc bd a8 26 a9 3d fc 07 01 3d
       -0.047966965 -0.09201436 0.08259326 0.031501755
0002c0 36 b0 81 bd 0a 36 c9 ba db aa d2 3d b1 35 23 bd
       -0.06332438 -0.0015351188 0.10286494 -0.039846126
0002d0 30 f2 fd 3d dc 85 85 bd 28 f1 9c 3d 8b c6 36 bd
       0.12399709 -0.06519672 0.076631844 -0.04462294
0002e0 1d e6 0a be 3c a8 6c bd 38 10 85 3d 95 1c 80 bd
       -0.13564344 -0.05777763 0.06497234 -0.062554516
0002f0 09 41 81 bd 78 c9 03 3d 81 1e 9c bd 2c 61 be bc
       -0.063112326 0.032174557 -0.07623006 -0.023239695
000300 23 6d ca 3c 22 05 5d 3b 85 5a d8 bc 99 8c 66 3c
       0.024710244 0.0033724983 -0.02641035 0.014071607
000310 47 9d 2f be 24 31 8f bd de 61 46 3d 21 5c 22 3d
       -0.1714984 -0.06991795 0.048433177 0.039638642
000320 d4 40 60 bd 31 68 cd 3c d5 c1 94 3d ce 34 fa bd
       -0.054749325 0.025074096 0.07263533 -0.12217103
000330 56 3c 6b 3d 2b b6 6b 3d 95 04 fc 3d 1b fc d7 bc
       0.057430588 0.057546776 0.123055615 -0.02636533
000340 44 48 a3 3d 63 e5 82 bc 46 b7 0c 3e 09 97 0a 3e
       0.07972768 -0.01597852 0.13741788 0.13534178
000350 2c b3 fd bd 49 b6 b2 3c 09 89 0a be ae 3d 46 3d
       -0.1238769 0.021815436 -0.13528837 0.048398666
000360 0f f6 16 3e ea 20 88 3c 3c 20 1a bc b3 be 7b 3a
       0.14742301 0.016617257 -0.009407099 0.00096033065
000370 d3 9e 9c 3d ed a2 f4 3d 77 19 27 bd b3 b1 d1 3d
       0.07647481 0.11945138 -0.04079577 0.102389716
000380 af 88 77 3d b0 9f 1c be aa 06 53 3d 7b e7 c7 bc
       0.060433086 -0.15295291 0.051520027 -0.02440237
000390 f1 68 29 3d 4f 82 80 3d ef ed 44 bc d7 7c 88 3d
       0.041359846 0.062748544 -0.012019618 0.06664436
0003a0 a8 b7 f6 bc d4 a7 cb bd 4e 54 04 be 3a 33 83 bd
       -0.030116871 -0.0994412 -0.12922785 -0.06406255
0003b0 74 21 70 bb 2a 56 93 bd 36 27 74 bd 8f d3 05 3e
       -0.0036641033 -0.07194169 -0.059607707 0.13068984
0003c0 5a 20 b8 bb e9 e8 fa bd bf 75 3d bc 09 90 fa 3d
       -0.005619091 -0.12251455 -0.011563717 0.12234504
0003d0 e8 b4 41 bd 69 04 99 bd c0 5d 38 bd bb 5b fe bc
       -0.047291666 -0.07471544 -0.045011282 -0.0310496
0003e0 4c e7 ae 3c 87 44 94 3d d1 29 9d bd 87 c3 40 3e
       0.021350525 0.07239633 -0.076739915 0.18824588
0003f0 30 62 62 3d de 75 c4 3d f4 40 9c bd 2f 3a 82 3d
       0.05526942 0.09592794 -0.07629576 0.06358754

lstm2.weight_ih_l0 f4 [256, 64]
000000 00 d6 08 3e 17 59 ad bd 4e 85 16 3c 09 19 6c bd
       0.13362885 -0.08464258 0.009187056 -0.057641063
000010 d4 be 21 3d 83 42 b1 bd 1d dc 5e 3e d7 0e 6d bd
       0.03948863 -0.08655264 0.21763654 -0.05787548
000020 c4 76 89 bd 31 96 75 3d 62 c3 a4 bd 10 25 22 3e
       -0.06712106 0.059957687 -0.08045079 0.1583445
000030 95 24 76 3d ad b2 b2 bc 4d 3f 60 3d 08 10 9a bd
       0.06009348 -0.021813715 0.05474787 -0.07522589
000040 1f bd 1a 3e d9 5d 01 bc 45 bc 3f 3d a3 a8 10 3d
       0.15111206 -0.00789591 0.046810407 0.035317075
000050 2e 9f df 3d ce de 09 be 30 68 39 bd 19 1a d9 bd
       0.10919033 -0.134639 -0.045265377 -0.10600681
000060 9d f6 13 3e 7e 11 7e 3d 04 3a 14 3e d2 b6 12 be
       0.14449544 0.0620284 0.14475256 -0.14327553
000070 55 57 82 bd 33 ca 80 bd 89 ed 06 be 40 09 95 bd
       -0.063643135 -0.062885664 -0.1317655 -0.07277155
000080 18 da 40 be 4d 61 53 3d fc 9d 75 bd d1 d2 27 3e
       -0.18833196 0.051606465 -0.05996512 0.16389014
000090 30 dd 92 bd 19 a7 88 3c 8d 6d 58 3e d2 7b 0c 3e
       -0.071710944 0.01668124 0.2113554 0.13719109
0000a0 5b ea dd 3d 25 41 b3 3e 71 ec 00 be 5d 60 0b bd
       0.108357154 0.3501064 -0.12590195 -0.034027446
0000b0 aa 22 e8 3d c7 87 56 3d c6 f5 90 bd 86 d8 ee 3c
       0.11334737 0.05237558 -0.070781276 0.02915598
0000c0 da 0f 18 3e 58 19 18 bd a7 ae 3c be 19 45 80 3d
       0.14849797 -0.037133545 -0.18426 0.06263179
0000d0 3b 51 2e bd d5 39 1e bd 44 fe 1e 3e 73 28 0f be
       -0.042557936 -0.03862937 0.15526682 -0.13980274
0000e0 a0 76 1c 3d a4 87 13 3d 72 96 34 bd 6b de 42 be
       0.038199067 0.03601803 -0.04408879 -0.19030158
0000f0 16 5a 26 be 46 1d 03 be cd 66 36 bd 6d 25 7c bd
       -0.16245303 -0.12804136 -0.044531632 -0.06155913
000100 42 96 97 3d e6 17 0f be 04 1b 63 3d f9 d6 93 bd
       0.07401706 -0.1397396 0.055445686 -0.07218737
000110 93 da 2d 3e c4 5c c6 3d 99 47 f0 bd 8a 38 35 be
       0.1697791 0.096856624 -0.11732406 -0.17697349
000120 26 68 46 3d d5 37 36 bd d1 61 7e 3c 4a 18 b0 3e
       0.048439167 -0.04448684 0.015526251 0.3439353
000130 0b 32 7b 3e 97 b7 fc 3c a8 9f 12 3e 19 30 91 bd
       0.24530809 0.030849261 0.14318717 -0.07089252
000140 66 eb 14 3e 6d 90 88 bc 8b 24 3c 3d e0 75 d5 3d
       0.14542922 -0.01667043 0.045933288 0.104228735
000150 e7 3b f8 3c f4 9a ea 3d 52 37 9f bd 24 04 13 3e
       0.030302001 0.11455336 -0.077742234 0.14357048
000160 f3 e4 f2 bc 92 2d d9 bd 2e c5 cd bc 43 c0 85 be
       -0.029650187 -0.10604395 -0.025118437 -0.26123247
000170 f3 55 94 3d d1 31 95 3e 51 62 c0 3c d9 b7 d9 3d
       0.07242956 0.2913957 0.02348438 0.10630769
000180 14 0a 85 3c 61 6d 05 3e 39 b9 81 bd 3e df 87 be
       0.016240157 0.13030006 -0.063341565 -0.26537508
000190 3d 42 a8 bd af 1a 69 3d 7d 1d 78 3d 38 de 76 bd
       -0.08215759 0.056910213 0.060574997 -0.060270518
0001a0 df ed 0a 3e a4 cb 8c 3e d5 b7 a3 3c a8 7e 52 3d
       0.13567303 0.27499115 0.019985119 0.05139032
0001b0 64 49 1f 3d 2d 00 06 be 2f 22 c9 bd aa ea b2 be
       0.03888835 -0.13086005 -0.09820973 -0.3494466
0001c0 e4 35 90 3c a2 65 07 be 00 e0 b2 bd a7 8b fd bd
       0.017603822 -0.13222364 -0.08734131 -0.12380152
0001d0 e0 d1 50 be 01 b2 fe 3d 9b b1 a6 bd 65 7c 0a be
       -0.20392561 0.12436295 -0.08139344 -0.13524015
0001e0 75 1f 34 3e c9 f0 f5 3d 19 5f 11 be 38 b9 66 3e
       0.17590125 0.12008817 -0.14196433 0.22531593
0001f0 3e ae 3e bc bd 2d a7 3d b9 1c 37 be 30 74 1c 3e
       -0.011638222 0.08163021 -0.1788205 0.15278697
000200 77 40 08 be df ae b1 be a7 db 3c be fa 9f 47 be
       -0.13305841 -0.3470373 -0.18443166 -0.1949462
000210 b9 55 0b 3d 81 6f d6 bd d4 f6 8d 3e 21 2f 05 3d
       0.0340173 -0.104704864 0.27727377 0.03251565
000220 bf 6b 1a bd 33 56 84 bd b8 f7 96 3d f5 b2 e6 bc
       -0.03770041 -0.06461754 0.07371467 -0.028161505
000230 39 64 b4 3d 53 f6 5b 3d ca 1e 96 bd 6f 67 f3 3d
       0.088081785 0.05370171 -0.07330091 0.11884963
000240 a6 d3 bf bd 2e ee db 3d 31 43 4f bd 36 a9 49 3e
       -0.093665406 0.107387885 -0.050601188 0.19693455
000250 71 f1 fe 3d b6 41 f3 bd 56 2c ad bd 9a 66 1c bd
       0.12448395 -0.11877768 -0.08455722 -0.038183786
000260 f5 c7 e6 3d 7a 70 69 3d e4 66 01 bc db fa 39 be
       0.112686075 0.05699203 -0.007898066 -0.181621
000270 e8 44 0a 3c 9f 77 2a 3d a1 0c 9c bd 30 c5 17 be
       0.00843928 0.041617986 -0.07619596 -0.14821315
000280 6d 0e c9 bd 45 78 ce b9 c0 bb d4 3d 35 1d 05 be
       -0.098172046 -0.0003938099 0.10387373 -0.12999423
000290 ad 53 3a be 7a 4f 81 3e 9b 19 12 bd 1b 16 34 be
       -0.18195982 0.25255948 -0.03566895 -0.17586558
0002a0 49 98 49 3e d0 fc bc bc 29 cb 7c 3d d2 6e 24 3d
       0.19686998 -0.02306977 0.061717186 0.04014475
0002b0 13 ab 97 bd 85 42 17 3e 29 6d c0 bd 6f b6 25 3e
       -0.07405677 0.14771469 -0.09395821 0.16182874
0002c0 d4 ca f6 3d 1f f3 19 3d c4 3d 20 be f4 33 9f 3d
       0.12050405 0.037585374 -0.15648562 0.07773581
0002d0 2b 87 c2 bd 3d 43 2d 3e d9 9e 01 be 82 ca ad bc
       -0.094984375 0.1692018 -0.12658252 -0.021214727
0002e0 ba d3 a9 bc d4 f5 5a bd 67 ba 19 bc f4 b7 39 3d
       -0.020730842 -0.053457096 -0.009382821 0.045341447
0002f0 e2 83 df bd d9 01 2f be b9 45 20 be 04 d8 08 be
       -0.109138265 -0.17090549 -0.15651597 -0.13363653
000300 70 0a 2f 3d 24 64 ce 3d 69 46 69 3d ec 70 d5 3b
       0.042734563 0.10077694 0.056951914 0.0065137055
000310 f2 62 97 bd 49 59 4d 3e 32 e7 c4 3d 2d cf 32 bd
       -0.07391919 0.20053591 0.096144095 -0.04365461
000320 0e 51 4b bd 3a ec be bc 43 b4 d5 3d 2b 57 79 be
       -0.049637847 -0.023306001 0.10434773 -0.24349658
000330 5c d5 a2 3d d4 fc 6f bd 6e 73 4b 3d 21 d1 ec bd
       0.07950851 -0.058590725 0.04967063 -0.11563326
000340 a1 f6 3b 3e 60 d0 84 bc e6 fb c1 bd 8d d0 95 3d
       0.183558 -0.016212642 -0.09471874 0.073151685
000350 81 26 cc 3e de 69 de bd 20 6f a8 bd 35 12 a7 3d
       0.39873126 -0.10860036 -0.082243204 0.081577696
000360 f8 49 d9 bd b0 62 0e be 32 52 27 3d 85 4e 98 bd
       -0.106098115 -0.13904834 0.040849872 -0.074368514
000370 2d 46 8a bb 91 b0 89 3e 52 e3 80 bd c3 4b fc 3d
       -0.0042197914 0.26892522 -0.06293358 0.12319138
000380 b1 cd 55 3e 12 14 0a bd e8 ff 30 be 45 91 7a be
       0.20879246 -0.033710547 -0.1728512 -0.24469478
000390 bc 5a 14 be c2 54 12 3d 0d 6f 0a be d2 84 3b be
       -0.14487737 0.035725363 -0.13518925 -0.18312386
0003a0 db 58 86 bd db d5 f7 bd b5 8d 0e be a2 3d eb 3d
       -0.065599166 -0.121013366 -0.13921244 0.11486365
0003b0 0a f0 75 3d 9d ea 88 3d e6 b9 0d be f9 37 1a be
       0.060043372 0.06685374 -0.13840446 -0.15060414
0003c0 ad 93 8d 3d 16 c5 84 bd 54 14 30 3e d2 59 9b 3e
       0.069129325 -0.06482904 0.17195255 0.30341965
0003d0 b7 e6 09 be 79 b3 76 3e 3d ca 62 be 4e 75 2e 3e
       -0.13466917 0.24091901 -0.2214746 0.17036936
0003e0 e8 d9 b5 3e 3e d4 0e be a4 a5 fa bd 74 17 10 3e
       0.35517812 -0.13948151 -0.12238625 0.14071447
0003f0 63 bf 09 3d c6 6d 29 3e 03 fc 2b 3d b8 b7 1a 3e
       0.033629786 0.16545781 0.041988384 0.15109146

lstm2.weight_hh_l0 f4 [256, 64]
000000 d3 bc 75 3c 36 36 f0 bb bb 7d 29 bd b7 e1 c8 bc
       0.0149986325 -0.007330681 -0.04137967 -0.024521692
000010 c7 4e 94 bd 6b 6d 63 3d e9 9c b0 bd 02 17 5c be
       -0.07241588 0.05552427 -0.08623678 -0.21493152
000020 e8 7b 89 3d 26 3c 36 be 3b 67 22 3e 2b c4 8e 3e
       0.06713086 -0.17796382 0.15859692 0.2788404
000030 9f bf 75 bc 22 6d 57 3d 4a a1 fd bd cd e7 7c be
       -0.014999299 0.05259431 -0.12384279 -0.246978
000040 dd aa 33 bc e4 15 41 3d d0 47 65 be ad a0 7c be
       -0.01096603 0.047140017 -0.22390676 -0.24670668
000050 90 7f 5c 3c 91 2b ef bc ca bd b5 3d 42 07 9e bd
       0.013458148 -0.029195579 0.0887409 -0.07716228
000060 5c 76 6d be 3e 23 12 be ae 8e 76 be 10 16 fc 3d
       -0.23189682 -0.14271256 -0.24077865 0.123088956
000070 47 5d 81 bc 3a 30 94 3d 3a f6 ca 3d 84 19 ab 3d
       -0.015791548 0.07235761 0.09910245 0.08354476
000080 9c 43 0e be cf e8 bf 3d e0 af b2 3d d3 f5 5d 3d
       -0.13892978 0.093705766 0.08724952 0.054189514
000090 e4 e5 00 3c 87 fd e8 3d 17 82 1a 3e f7 51 8a bd
       0.00786731 0.113764815 0.15088688 -0.06753915
0000a0 15 e1 d2 bd 97 7d de bd aa 56 1a be b8 7e 2a 3d
       -0.10296837 -0.10863798 -0.15072122 0.041624755
0000b0 d0 2e 29 bd 91 e2 60 bd 45 12 50 3b 30 0a c2 3c
       -0.04130441 -0.05490357 0.003174917 0.023686498
0000c0 ac 65 2f 3e 6d 6d 4b be 36 ab 2d be 45 75 cb bd
       0.17128628 -0.19865961 -0.16959843 -0.09934477
0000d0 ed e0 7a bd 3b 58 26 bd e3 53 69 3d de 33 05 3d
       -0.061249662 -0.040611487 0.056964766 0.032520168
0000e0 60 2d 89 3d cb 5f 62 bd aa 85 18 3c 7a c0 65 bc
       0.06698108 -0.055267137 0.009309212 -0.014022941
0000f0 fb 5f 0f bd e8 6c 13 3d 52 f5 47 3e 81 a5 9d ba
       -0.035003643 0.035992533 0.19527176 -0.0012027473
000100 7e 40 6f be 6b e9 18 3e 0a 7e 9c bd e6 09 3a bb
       -0.23364446 0.14932792 -0.076412275 -0.0028387248
000110 aa 02 66 3e 93 d3 3a 3d d2 bd 38 be 5b b1 18 bd
       0.22461954 0.04561193 -0.1804116 -0.037278514
000120 9f fe 63 3d ff f1 f5 3d d4 a7 c5 bd 60 2a ef 3d
       0.055662747 0.12009048 -0.09651151 0.11678004
000130 a2 24 19 3e cf 57 32 bd 96 b9 52 3d 19 fa 95 3d
       0.1495538 -0.043540772 0.05144652 0.07323093
000140 77 e1 15 3e 70 85 47 be c5 bb 1f bd 82 2b 13 bd
       0.1463679 -0.19484496 -0.03899743 -0.035930164
000150 d7 3d 41 3c ca f4 ad bd 6f 15 5c be aa 54 3d be
       0.011794529 -0.084939554 -0.21492551 -0.18489328
000160 b9 ff d0 bd be 6f 2f bd ac 38 8c bc 91 79 16 3e
       -0.10205025 -0.042831175 -0.017116867 0.14694811
000170 9f a0 1a 3e 1c af 34 bd 87 6c 00 bd 4d be 3a 3e
       0.15100335 -0.04411231 -0.0313535 0.18236656
000180 d5 59 8f 3b a3 1c fa 3c eb 88 56 3d 1b 35 94 be
       0.0043747225 0.030531233 0.05237667 -0.28946766
000190 02 3d 80 bd e0 75 eb bd 12 18 9a 3d 58 ec 20 3d
       -0.06261636 -0.11497092 0.07524122 0.039287895
0001a0 5c c7 3a be 7e 07 2b be d9 16 7c 3e ca b0 a8 be
       -0.18240112 -0.16702077 0.2461809 -0.3294738
0001b0 7b 6a 50 be 51 c4 e9 bd d6 f7 ac 3d 46 44 e3 bd
       -0.20353119 -0.114143975 0.084457085 -0.110970065
0001c0 37 2a 79 3d 09 cb 9d bd a1 d7 6b 3d a2 c6 fe bd
       0.060831275 -0.077047415 0.057578687 -0.1244023
0001d0 06 91 00 3e c9 bd 01 3e 44 2a 33 be 4d 43 1f 3b
       0.12555322 0.12670054 -0.17496592 0.002430159
0001e0 c1 82 d5 bd a1 8a f1 3d ce 1a 55 3e 8d 79 09 be
       -0.1042533 0.117940195 0.20811006 -0.13425274
0001f0 de 08 69 3c a8 b6 16 3e 92 6a 25 3e ad 24 3b 3e
       0.0142233055 0.14718115 0.16153935 0.1827571
000200 56 03 46 3e 33 e0 51 bd 49 d7 17 be 90 b6 16 be
       0.1933721 -0.051239204 -0.14828219 -0.1471808
000210 79 a4 97 bd dc b2 16 bc d9 e3 b6 bc f3 25 1b 3e
       -0.074044175 -0.009197917 -0.022325443 0.15151195
000220 53 0b 07 be 6f c0 4f be 77 58 21 bd fc d5 5d 3d
       -0.13187914 -0.20288251 -0.039391007 0.05415915
000230 c0 e6 b8 3d e0 99 fb bb ad 1d 2d be 12 51 57 be
       0.09028387 -0.0076782554 -0.16905852 -0.2102702
000240 85 20 f2 bb 74 54 e3 bc 91 62 36 b9 ac b5 e0 bd
       -0.0073891305 -0.027750231 -0.00017393591 -0.10972151
000250 07 9a a6 3d 90 6a b4 bd c2 26 93 3e a8 dc ea bd
       0.08134847 -0.08809388 0.28740507 -0.11467868
000260 be 50 2f be f3 10 88 bd e8 91 75 be 19 ff 9f 3d
       -0.17120644 -0.06643858 -0.2398144 0.07812328
000270 85 38 97 3d 35 01 a4 3d 8f c0 52 3e e5 2c bb 3d
       0.07383827 0.08008043 0.20581268 0.09139422
000280 8c 0b 70 3c 9a 03 32 3d 5d 11 08 be 8b f5 0e be
       0.0146511905 0.043460466 -0.13287874 -0.13960855
000290 22 1f bf bd 84 3f 17 3e d6 b3 43 3e 4b 4d 58 3c
       -0.0933211 0.14770323 0.1911157 0.013202022
0002a0 7f 2b 64 3c 18 c0 04 3e 13 ea 35 be 0c e5 88 3d
       0.013926386 0.12963903 -0.17765073 0.06684312
0002b0 47 ca 16 bd 1f b9 fd 3d 97 58 d8 3d 5a f0 ba 3d
       -0.036814 0.12388825 0.10563772 0.09127875
0002c0 ba 6f 1d 3e 78 a5 64 3c e3 05 89 bd 79 cd 69 ba
       0.15374652 0.013955466 -0.06690576 -0.00089188624
0002d0 ea 80 4b 3e be d6 a0 3d a1 91 f1 bd 6e 61 3c bc
       0.19873396 0.07853459 -0.11795355 -0.011497838
0002e0 8f ac 99 3c 29 7c 2e be 47 51 fc 3d 2a f7 fb 3b
       0.01875904 -0.17039551 0.1232019 0.0076893764
0002f0 4f cb ff bd de 00 ea 3d 58 f2 4e 3d 3a 84 46 be
       -0.1248995 0.11425947 0.050524086 -0.19386378
000300 19 19 0a be 38 9c f6 3c e8 43 b2 bd 17 6f ba bd
       -0.13486136 0.030103788 -0.08704358 -0.0910322
000310 b8 00 d7 3c fd ff 3e 3d ba fa 1d 3e 6a 2f 2b 3e
       0.02624546 0.04663085 0.15427676 0.16717306
000320 57 25 f4 3d 47 24 4f bd b1 e2 1c 3b e2 11 e9 bc
       0.119211845 -0.050571706 0.002393883 -0.02845091
000330 51 fc 2b 3d 7a a1 c7 bd 09 c3 79 be 7f 3f 26 3e
       0.041988675 -0.09747596 -0.24390806 0.1623516
000340 19 63 4e 3d 37 9a 19 3d f8 1a 21 bc 4c c6 89 bd
       0.050387476 0.037500586 -0.00983309 -0.06727275
000350 a3 eb 3a 3d 5e ec 93 3d 66 88 cc 3d f7 df 0f 3e
       0.045634877 0.07222818 0.099869534 0.1405028
000360 42 71 21 bd ec 76 07 be a4 86 27 3e ff 58 f3 bd
       -0.03941465 -0.13228959 0.16359955 -0.11882209
000370 34 2e 5f be 74 17 40 be a8 04 cd bc 19 12 20 3e
       -0.21794969 -0.18758947 -0.025026634 0.15631904
000380 bf 07 eb 3c cb 7e 16 be 4c ed 12 bd 4e 67 42 bd
       0.028690217 -0.14696805 -0.035870835 -0.0474618
000390 bc fc 87 3d 96 df 06 be 64 94 8f 3d 72 95 34 3d
       0.06640002 -0.13171229 0.07010725 0.044087835
0003a0 83 9f 0b 3e 3a 0e bf 3e 4b 12 87 bc 19 89 ae 3c
       0.13635068 0.37315542 -0.016488215 0.021305608
0003b0 7a b1 04 bd a4 5a e9 3c 77 2c 57 3c f4 f3 62 bd
       -0.032395817 0.028485604 0.01313316 -0.055408433
0003c0 27 41 6f bd 94 50 70 3d 8a 5f 16 3d f2 d0 4c 3e
       -0.058411743 0.058670595 0.036712207 0.20001581
0003d0 8e 68 c9 bc 03 ce f6 3d 9d 32 3d 3d 50 18 b9 bc
       -0.024585988 0.12051012 0.046190847 -0.0225946
0003e0 9c c7 3e be 18 cb 7e 3d b6 ba 85 3c 54 f1 58 3e
       -0.18630832 0.062205404 0.016324382 0.2118581
0003f0 fe 16 5c 3d cd 99 80 3d 33 2b 47 bd bb f1 0d bd
       0.053732865 0.06279335 -0.048625182 -0.03465436

lstm2.bias_ih_l0 f4 [256]
000000 5e aa d4 bd d4 5c 2a bd 45 4a 95 bc 83 99 00 be
       -0.103840575 -0.041592434 -0.018223891 -0.1255856
000010 15 44 8b bd f3 5d fe 3c ba d3 38 be 30 e0 68 3d
       -0.06800095 0.031050658 -0.18049517 0.056854427
000020 1d c3 04 bd 7a b4 19 be 37 02 34 bc 3f 8d 29 bd
       -0.032412637 -0.15010253 -0.010986856 -0.04139447
000030 29 bd 7f bd a6 8b 89 3d 99 4c 37 bd 6c 02 89 3d
       -0.062436257 0.06716089 -0.044750784 0.06689915
000040 03 0b 81 bd f8 41 05 bd 23 25 d7 3b b4 d3 8a bd
       -0.063009284 -0.032533616 0.0065657063 -0.067786604
000050 25 93 16 be 48 30 0c be f7 35 21 bc ad b1 56 bd
       -0.14704569 -0.13690293 -0.009839526 -0.05241554
000060 40 85 6c 3c 34 79 32 be 77 ec 90 3d 2a d4 80 bc
       0.014436066 -0.17429048 0.07076352 -0.015726168
000070 71 c8 7f 3c 5d 9c 1b 3d ab d5 bb bd 05 23 98 3d
       0.015611754 0.037990917 -0.09171613 0.074285544
000080 f3 ce a3 bc 4c 09 c7 bd 21 d2 e2 bc 78 85 bb bd
       -0.019996142 -0.0971857 -0.027688088 -0.091563165
000090 4c 92 28 bd 2c 5b 04 bc 9d 50 03 be d0 94 cf 3d
       -0.041155145 -0.008078378 -0.1282372 0.101358056
0000a0 6f 4b 23 3d 5f 7e 51 be fe 9e 81 bd 48 1d e9 3d
       0.03986686 -0.20458363 -0.063291535 0.11382538
0000b0 4b 0f 26 be 50 43 96 bd ea 24 46 be 44 15 57 bd
       -0.16216771 -0.073370576 -0.19350019 -0.052510515
0000c0 cc 08 2e 3c 76 d4 a6 bc af 6c 0b bd 03 ba 34 bc
       0.0106222145 -0.020364981 -0.034039196 -0.011030677
0000d0 a1 33 ac bd 16 e4 79 3c 3e a3 10 3e a9 da d6 3d
       -0.08408285 0.015252134 0.14124772 0.10490925
0000e0 61 c2 ad bd dc e8 13 be 2c 1d b3 3d ed ee 34 be
       -0.084843405 -0.14444298 0.087457985 -0.17669268
0000f0 75 02 83 bd 9e e2 ff 3d 61 f9 fe bc 4d 03 57 3c
       -0.06396953 0.12494396 -0.031124773 0.013123346
000100 66 91 24 3d b5 69 a4 3d bc b5 e9 3d e1 4b 20 3e
       0.040177725 0.080279745 0.11411616 0.15653946
000110 80 37 80 3d 68 71 3d 3e 7f 99 0b 3d 51 0b c9 3d
       0.06260586 0.18500292 0.034081932 0.098166116
000120 74 73 dd 3d e5 d6 70 3d 2f af 8a 3c 42 9a bd 3d
       0.108130366 0.05879869 0.016929237 0.09257938
000130 fa 28 3f 3d 80 3e ba 3c 8a cf df 3d 85 a0 5a bd
       0.046669938 0.02273488 0.10928257 -0.05337574
000140 16 b4 89 3c ff 6a 53 bc c1 d0 3d 3e 72 06 d0 3d
       0.016809504 -0.012903928 0.18536665 0.10157479
000150 23 7b d5 3a 7c 30 1d bd 3c 71 4b 3e e2 85 0f bd
       0.0016287308 -0.038376316 0.19867414 -0.03503979
000160 56 d1 a8 bd 7a 94 ea 3d 2c d0 56 3d 3c 16 6e 3d
       -0.08243053 0.11454101 0.052444622 0.058126673
000170 46 a2 fe 3d db 56 88 3d af 4a f6 3c 7b cf 20 3e
       0.12433295 0.06657191 0.030064909 0.15704148
000180 56 b1 b5 3c cc ce 16 be 15 17 9d 3d 23 e5 2e bd
       0.022179287 -0.14727324 0.07670418 -0.04269899
000190 12 8a 47 3e fc 74 87 3e 5d a8 bd 3d c6 e8 03 3e
       0.19486263 0.2645644 0.09260628 0.12881765
0001a0 54 55 5b 3d 2d a5 0b 3e 0f 86 98 3d d6 1e 94 3d
       0.053548172 0.13637228 0.07447445 0.07232444
0001b0 67 b8 b3 bd 28 17 b6 bb aa 5c 7e bc 2d 38 21 3c
       -0.08775406 -0.0055569597 -0.0155250225 0.0098400535
0001c0 f6 ed e6 3b 4e 93 1a 3e a9 64 36 3e 7c 7a 12 3e
       0.00704741 0.15095255 0.17811836 0.14304537
0001d0 a0 18 89 bc 9a d9 73 3d 50 e4 03 bd 6c 8c 83 3e
       -0.016735375 0.059533693 -0.032200158 0.2569307
0001e0 64 af f8 3d a3 b1 1b bd 6a f0 28 3e d0 6c 68 bd
       0.12142828 -0.038011204 0.1649796 -0.056744397
0001f0 99 ae c3 bd 7f 18 77 ba a0 f4 ee bc e0 98 60 3d
       -0.09554786 -0.00094259524 -0.02916938 0.054833293
000200 81 7f 10 3d 9d 02 53 3d d7 ac e2 3d 3d 1e 9d 3d
       0.035277847 0.051516164 0.11068123 0.07671783
000210 be 38 24 3d f0 f1 6b 3d bf d7 49 3d fa 1a 12 be
       0.040093176 0.057603776 0.049278017 -0.14268103
000220 c3 27 fe bb 2d b1 5d bd b5 ae ef 3d 45 2a 89 bd
       -0.007756205 -0.054124046 0.117032446 -0.066975154
000230 f2 9a 40 3b 69 e6 af bd 11 60 d3 3c 79 30 39 bb
       0.002938923 -0.08588869 0.025802644 -0.0028257652
000240 7d e3 07 be 71 9a b9 bd b2 9b f9 bc f8 e8 3d bc
       -0.13270374 -0.090626605 -0.03046975 -0.011591189
000250 11 fe d4 3d 6a 07 99 bc df 04 99 3c 5b 25 a6 3d
       0.10400022 -0.018680293 0.01867908 0.08112594
000260 87 5c 97 3d a1 a7 3b bd b2 9b d1 bc ae a1 96 3d
       0.07390695 -0.04581416 -0.025586937 0.07355057
000270 43 5a 1a bd 51 20 0a bd 1c be 9c 3d e4 2d 7a 39
       -0.037683737 -0.033722226 0.07653448 0.00023858954
000280 c2 62 10 bd 97 08 eb 3c 77 39 8d bd 75 9a a3 3d
       -0.035250433 0.02869062 -0.06895726 0.07988445
000290 37 90 2c bc 9a f2 03 3d 89 65 f2 3d b5 e1 92 bd
       -0.01053243 0.032213785 0.118357725 -0.071719564
0002a0 4e a4 1e 3e 8c 5c 53 bd a0 6b db bc a9 45 0f 3e
       0.15492365 -0.05160193 -0.026784718 0.13991417
0002b0 37 12 43 3d dd 6d ac 3d 44 7a 91 3d 6f b4 06 bc
       0.047624793 0.08419392 0.071033984 -0.00822173
0002c0 42 a2 cc 3d b5 1e a1 3d 85 d2 d4 3d 8d 01 98 3c
       0.09991886 0.07867185 0.10391716 0.018555427
0002d0 ff 12 63 bd 67 b4 a0 bd fb 58 e0 3d e3 a7 c4 bd
       -0.055438038 -0.07846909 0.10954472 -0.09602334
0002e0 71 36 67 3d f5 ac b9 ba 92 7a 0f be 4b 19 c0 bd
       0.056448404 -0.0014165925 -0.140116 -0.09379824
0002f0 fe 0b f1 bd dc f8 9e 3d 07 70 86 3d b2 b4 4a bd
       -0.117698655 0.0776231 0.06564336 -0.04948873
000300 4e 0b 8f bd ed 52 53 3d b3 ba b8 bd c7 b8 b6 3d
       -0.06984578 0.051592756 -0.09019985 0.08921962
000310 8e 4b 07 be f0 47 82 3d a6 fe 67 be 15 af d1 bd
       -0.13212416 0.06361377 -0.22655734 -0.10238472
000320 78 26 6c 3d 6b 1d 4c 3e b2 58 39 bd fb 37 00 3b
       0.057653874 0.19933097 -0.045250602 0.0019564617
000330 04 0f ae bd 8a 27 1f be 68 58 99 3d 7a 66 ae bd
       -0.08498958 -0.15542427 0.07487565 -0.085156396
000340 9f 5e ae bd bc 63 5e bd 0a c1 90 bc cd 3b 77 bb
       -0.08514141 -0.054294333 -0.017670173 -0.0037724853
000350 5e 7f 18 3e 4e 04 57 3d 7c e3 c5 bc ed 7a e4 bd
       0.14892337 0.05249434 -0.024156325 -0.11156259
000360 62 46 a1 3d 9e fa 62 bd a8 cd c8 bd 2d 6d 10 3e
       0.078747526 -0.05541479 -0.09804851 0.14104147
000370 be 71 f2 3d 8a 9b 4b 3d 75 61 0b be a5 38 5c 3c
       0.11838101 0.04970888 -0.13611396 0.0134412395
000380 50 69 15 3e 7c be c0 bd 99 90 48 3e 3d 11 10 3d
       0.14590955 -0.09411332 0.1958641 0.03517269
000390 99 59 d8 bc 26 98 6e bd 24 9f 91 bd 77 4d 80 3d
       -0.026409911 -0.05825057 -0.07110432 0.06264775
0003a0 43 d4 e8 3d cd c1 44 3d 3b d9 27 3d 2b d5 a0 3d
       0.11368611 0.048036385 0.04097865 0.078531586
0003b0 6d 22 0c bd d9 45 a6 3d db 59 9a bd 48 e3 b5 3d
       -0.03421252 0.08118791 -0.0753667 0.08881241
0003c0 94 49 f2 bc 0f b3 b6 3d 93 ec ff 3d bd a6 fa 3d
       -0.0295761 0.089208715 0.12496295 0.12238834
0003d0 50 df f1 bd 02 82 99 3d 92 c2 c9 bd b1 af 8a 3a
       -0.118101716 0.074955 -0.098515645 0.0010580925
0003e0 f7 19 9c bd 40 7d 45 3a b0 0c 94 3d bf 02 cb 3c
       -0.0762214 0.00075336173 0.072289824 0.024781583
0003f0 96 b1 0d be 55 93 7a bd 65 7c 01 be 3c 5c d3 bc
       -0.13837275 -0.061175663 -0.12645109 -0.025800817
